data/data.pth (torch, 525098 bytes, 6 tensors)

l1.weight f4 [8, 2673]
00000000: 34a7 453f b808 15c0 b4e9 edbf a552 6bc0
00000010: ede1 80bf 5934 b0bf 6d2c c43f 54dc 91bf
00000020: ff27 90be a468 6dbf 7b9f 643f 0ae0 0f3f
00000030: 956f 8340 55da 1c3f b39a 2a3e c6a9 e2c0
00000040: 5430 33bf 0d82 113f ee2a 35c0 baaa 0c40
00000050: 9011 bc3f 0f9c 1ec0 ffb9 6ebe 96ad 1bc0
00000060: e735 a53f 20c8 193c 1f59 8cbf 56ae 4240
00000070: 4878 07bf b806 c9be 355d c9bd f2fc 1e40
00000080: 0e6e 01bf 672a 0a41 fb59 04c0 020c fdbf
00000090: 7d5a ddbd 000b 2fbf 664f 1bc0 059b 4dc0
000000a0: 1666 dcbf 66ff 3a3f d9e0 4f3e 40a4 1e40
000000b0: 4e45 8940 8c3b ec3f 6665 3b3f 6219 efbf
000000c0: b70a 15c0 66eb 86bf 5842 f0bf 1463 b5c0
000000d0: 2d04 b1bf a43d 36bf 50e4 ba3f 065b 9d3f
000000e0: d33a 06bc afd2 25bf 66aa 0b41 0e49 5bc0
000000f0: 59bb cabf a8c4 9b3f 7290 c5bf 142c 90bd
00000100: 167a a0be 14b1 0d3d 1813 9e3d e107 1140
00000110: c213 5a3f a08c 16bf 9c78 f4bf 2272 f13f
00000120: 614b 143f dedf cac0 ca7f 9dbf 65ab d3be
00000130: 41ea fd3d ce35 67c0 7710 7940 844a 6440
00000140: 1b05 ff3f 067e e5be bc49 2940 4821 8c3f
00000150: 9c82 bf40 47fe ff3e e555 b540 c54c 08bf
00000160: 8665 183c 197c 13c0 5ff8 5240 1228 8c3f
00000170: f78e 6ac0 f311 2540 1a47 01bf 28bb fbbf
00000180: 42f2 40c0 4ded a23f 6e61 ebbf 2cc3 6440
00000190: 3d22 ecbf 271c 8abf ed44 da3f 36a0 52bf
000001a0: 6f36 c8be d96c 08c0 9e7d 56bf 6cc3 91bb
000001b0: 0699 e2be 84e8 62bf 75ae db3f d465 db3e
000001c0: 502d e33e b017 c43f 8003 3f40 06b4 53c0
000001d0: c4d8 ffbd a567 6640 0aee 67c0 8297 86bc
000001e0: d7c2 1240 f9de ef3f fbc3 acc0 9216 c13f
000001f0: 38ad 39be c137 cf3f cb81 d73e fe45 1e3f
00000200: 7112 0540 98c6 a1be 1e3f c0bf 234d 843c
00000210: a175 a13e 4714 dbbf 50d3 c2be 48fb ab3f
00000220: 413f 09be 0d67 663f d47a 8a40 7f68 7e3e
00000230: 90d5 f53f 9180 14c0 c5e4 96bf c501 ef3f
00000240: 946f 62bf e0a4 42be 6640 313c 48e2 113b
00000250: e754 8ebf b544 e0bf 3716 b8bf 93c9 943f
00000260: d231 8a3f b8f0 a4bf ca04 91bf afab df40
00000270: 1f3e b4bf f85d 8040 1ecb 1040 6e94 84bf
00000280: ad6c d53d 5184 61bf 3645 5340 cb04 edbf
00000290: f7f6 2840 f08a afba fcb2 f03d ec08 883f
000002a0: 4064 f33e cb32 ba3d 798f ecbf c10b bcbd
000002b0: 6fdd fb3f b54b 2c40 7498 303f 78be 063f
000002c0: 1c75 9c3b 2c6f 843b 53f3 a9be 5692 f63f
000002d0: 0a9d 0c40 a556 d8bd 96cd da3e 3252 8f3f
000002e0: 8675 07c0 d2a2 b33e 5978 d33f 36a5 b33f
000002f0: e03c ba3f 3380 463f 6cd1 4540 a2c0 84bf
00000300: 4087 9d3e 6a71 64bd a215 2241 99b6 253f
00000310: 4bac bfbf 4d89 8740 92c3 c4bf 31ba 243f
00000320: 06e6 6d3f 3cd2 63bc cbb0 963c 2fd2 a9be
00000330: 7f5d 1dbf a1a0 7abf 235a e5bf c668 0840
00000340: c949 3440 13b9 823f 3f2c b03f 65c7 67c0
00000350: 8f3b 7abf 6165 1cc1 bf35 c3bf 6f29 5d3d
00000360: 1952 4d40 3911 1840 cf3c 08c0 4726 603f
00000370: ed74 ffbf e495 123c c144 0e40 767e a43e
00000380: dcb2 ccbf 12a1 8d3e c4fa 71bc 30b3 1bc0
00000390: 5b80 493f a4aa 9abe 90a4 6f3f a506 f1bf
000003a0: 73ba 38bf 1dc0 453f 91fd ac3f 0c7d 2640
000003b0: 9ebe c7bb c5f0 ecbe f32c afbd 0967 a340
000003c0: 3662 21bc 8d65 80c0 b7eb 0f41 151b cf3f
000003d0: eba8 5bbe 680c 343e 4413 eebf e2f7 ba3c
000003e0: 1c9d bb3b f08b 9d3c ef6b 2140 d66f e6bf
000003f0: c0d8 ceba 5ae9 523c 09ed 933f e8d0 0140
0.77208257 -2.3286572 -1.8586946 -3.6769192 -1.0068947 -1.3765975 1.5326058 -1.1395364
-0.28155515 -0.92737794 0.8930585 0.5620123 4.107371 0.6127065 0.16660576 -7.0832243
-0.6999562 0.56839067 -2.8307452 2.1979203 1.469286 -2.478275 -0.2331314 -2.4324698
1.2907075 0.009386092 -1.0964698 3.0418906 -0.5291791 -0.39262938 -0.09832231 2.4841886
-0.50558555 8.635352 -2.067992 -1.976929 -0.10808275 -0.6837616 -2.426721 -3.2125866
-1.7218654 0.7304596 0.20300616 2.478775 4.28971 1.8455672 0.73201597 -1.8679621
-2.328779 -1.0540588 -1.8770247 -5.6683445 -1.3829399 -0.71187806 1.4600925 1.2293403
-0.008192736 -0.647746 8.729101 -3.426334 -1.5838424 1.216939 -1.5434706 -0.07039657
-0.31343144 0.034592703 0.077184856 2.266106 0.851864 -0.58808327 -1.9099307 1.8862956
0.5792752 -6.3398275 -1.2304623 -0.413417 0.12398196 -3.612659 3.89163 3.567048
1.9923433 -0.4482271 2.6451254 1.0947657 5.9846935 0.49998686 5.666735 -0.5324214
0.009301549 -2.3044493 3.2964094 1.0949728 -3.664976 2.5792205 -0.5049912 -1.966649
-3.0147862 1.2728668 -1.8389108 3.5744123 -1.8447949 -1.0789841 1.7052284 -0.8227571
-0.3910403 -2.1316435 -0.83785427 -0.004448345 -0.44257373 -0.8863604 1.7162615 0.42851126
0.44370508 1.5319729 2.9845886 -3.3078628 -0.12492517 3.600076 -3.6239038 -0.016429666
2.293142 1.8739921 -5.3989234 1.5085013 -0.18132484 1.618889 0.42091212 0.6182555
2.0792506 -0.31596828 -1.5019262 0.016150063 0.31535056 -1.7115563 -0.38051844 1.343606
-0.13403036 0.90000993 4.3274937 0.2484455 1.9205799 -2.320347 -1.1788565 1.8672415
-0.88451505 -0.19008207 0.010818576 0.0022260118 -1.111966 -1.7520968 -1.438178 1.1624016
1.0796454 -1.2885962 -1.1329587 6.9897075 -1.4081458 4.011471 2.2623973 -1.0357797
0.10421119 -0.88092524 3.3010993 -1.8517088 2.6400735 -0.0013392847 0.117528886 1.0627723
0.47537422 0.09091719 -1.8481284 -0.091819294 1.9676951 2.6921208 0.68982625 0.5263438
0.0047747027 0.004041573 -0.33193454 1.9263408 2.197085 -0.10563401 0.42734975 1.1196959
-2.116548 0.3508516 1.6521102 1.4034793 1.4549828 0.77539366 3.090907 -1.0371287
0.3076725 -0.055772223 10.130281 0.64731747 -1.4974455 4.2355103 -1.5372183 0.64346606
0.9292911 -0.013905104 0.018394848 -0.3316817 -0.6147079 -0.9790135 -1.7918133 2.1313949
2.8170035 1.021273 1.3763503 -3.621545 -0.9774713 -9.774751 -1.5250777 0.053994592
3.2081358 2.3760512 -2.1287115 0.87558407 -1.9957558 0.0089468695 2.2229464 0.32127732
-1.5992084 0.2766195 -0.01476926 -2.4328117 0.7871148 -0.30208313 0.9361048 -1.8830153
-0.721595 0.77246267 1.3514882 2.6013823 -0.0060957214 -0.46277443 -0.08553495 5.1063275
-0.0098500755 -4.0123963 8.995048 1.618014 -0.21451156 0.17582858 -1.8599629 0.022823278
0.005725516 0.019231766 2.5222127 -1.800288 -0.0015781149 0.012873018 1.1556712 2.0283756

l1.bias f4 [8]
00000000: 5dc9 e43f 5f83 ae3f 60dd 9ac0 f608 cdbe
00000010: 3eaf 5ec0 78a7 1c40 76f9 2ac0 cbb4 5f40
1.7873951 1.3633841 -4.8395233 -0.400459 -3.479446 2.4477215 -2.671476 3.4954097

l2.weight f4 [8, 8]
00000000: 5abf 03c0 6af0 3ec0 d866 4a3f e299 3840
00000010: e31a ac3f 37fc da3e 9fd2 a9c0 8cf1 fb3f
00000020: e0a9 54bf 9141 14bf 4e4a 673f d876 19c0
00000030: 78b5 633f 7ea5 d93f 582f f83f 04e6 0ebf
00000040: 210d 0fbf 5a67 993f dbe2 2040 82d2 75bf
00000050: 09ad 4a40 6cf2 8ebf 5f6b 553f c67d 83bf
00000060: c37d 0e40 10b8 273f 9fd6 cd3e 8110 13bf
00000070: 7973 7fbf ca8d dabf 785f b43e c616 a3bf
00000080: 7c93 a3bc 727e 593f c26c a6be ac92 00bf
00000090: 9048 30be 6087 2d3f 6717 783e d3eb 1b40
000000a0: 78e9 a13f 4fdd 48bf 5cbd 4240 c3d4 953e
000000b0: cb7a 0c40 e906 423f f54c 1d3e a687 3f3f
000000c0: dfcb be3e 5e23 95bf 7536 003f e333 693f
000000d0: 1f62 b6bf 331f b3bf 7733 c73f b41b d7be
000000e0: 74f9 d43c ce4b 87bf e809 d43e 7b27 01bf
000000f0: 6ddc da3e d4f1 41bf 38de 613e da7d 623f
-2.0585542 -2.9834237 0.7906318 2.8843923 1.3445705 0.4277055 -5.3069606 1.9683089
-0.8307171 -0.57912546 0.90347755 -2.3978786 0.88948774 1.7003629 1.9389448 -0.55819726
-0.5587941 1.1984665 2.5138462 -0.96024334 3.1668112 -1.1167731 0.8336696 -1.0272758
2.226426 0.6551523 0.40202805 -0.5744706 -0.9978557 -1.707452 0.35229087 -1.2741325
-0.019967787 0.84958565 -0.3250485 -0.50223804 -0.1721518 0.6778469 0.24227677 2.4362686
1.2649374 -0.7846269 3.0428076 0.29263887 2.1949947 0.75791794 0.15361388 0.7481636
0.37264916 -1.1651418 0.50083095 0.910948 -1.4248694 -1.3993896 1.5562581 -0.42013323
0.025997855 -1.0570009 0.41413808 -0.5045087 0.42746297 -0.75759625 0.22057426 0.88473284

l2.bias f4 [8]
00000000: e4e0 5440 ead2 8140 e32a a040 ff2a 03bf
00000010: 3ddc 0ec1 3bbb abc0 5d80 cf40 e919 2141
3.3262262 4.0569963 5.005235 -0.5123748 -8.928769 -5.3666053 6.4844193 10.068826

l3.weight f4 [7801, 8]
00000000: ce0c 24c1 39ff a5c2 1936 54c2 e945 b0c1
00000010: 7a73 36c1 f353 95c1 71e9 c4c1 3cfa a9c0
00000020: 448f c8c0 697d 30c2 6cf2 63c2 488c 63c2
00000030: 4861 0dc1 4b1d afc1 7f8b 49c1 65e5 11c1
00000040: d448 18c1 a9ba cac1 9b58 94c1 618c 6ec1
00000050: 1aaf 37c2 d0f5 7ac2 7ecc d6c1 7177 a9c2
00000060: 90d5 5fc1 09df 17c2 c2ac 97c1 7d2c 48c1
00000070: 1bf0 12c2 ef62 63c1 e4fe dbc1 6c92 69c2
00000080: 2de8 73c1 e5c7 a2c1 1d50 dec1 e30a 20c2
00000090: 4cbc 55c1 9f24 85c2 5f54 9dc1 7516 dac1
000000a0: 9005 69c1 fe6e 99c2 c938 97c1 780d 4cc1
000000b0: 5607 73c1 f6a6 9cc2 3530 0cc2 6c93 9ac2
000000c0: 05d2 30c1 07f6 84c1 838a d7c1 65a9 88c2
000000d0: 73fe 8fc1 121a abc2 e460 8bc1 fd4b 79c2
000000e0: 9cbe d5c1 36dc 17c2 e7cc 31c2 3844 b2c1
000000f0: 7b1d 70c1 a84f 32c1 49f3 65c2 ce70 d6c0
00000100: 3798 fdc1 71a2 89c1 7f17 bac1 3279 7dc2
00000110: 6ae5 f2c1 f0dc a1c2 76b6 e5c1 4393 7cc2
00000120: 5874 22c1 ed49 1cc1 c7dc afc2 c27e 97c1
00000130: 04ba 59c2 5541 afc2 d12d 54c2 bdc4 25c1
00000140: c1d9 32c2 67f3 2bc1 0a3d a6c2 dcf8 fbc1
00000150: 6eb4 62c2 b1f7 d5c1 589d 21c2 3a68 19c1
00000160: bdd2 11c1 313f 8cc2 efbd a4c2 c38f 4bc1
00000170: 229a 15c2 0ca2 89c1 c6d2 22c1 5041 f6c0
00000180: 0b33 60c1 5aa8 83c1 95cf 66c2 634d 68c1
00000190: 5741 5dc2 cd5b 41c1 f556 6ec1 0797 1cc1
000001a0: ed38 cac1 5ca3 54c1 0837 2dc2 835d 77c1
000001b0: f634 44c2 96eb 81c1 81fd d6c0 7cf9 3dc1
000001c0: fe07 bcc0 e22d b5c1 de16 8cc1 bdd1 8ec2
000001d0: 4bf2 7ec1 72ff 80c2 3e35 63c1 feb0 6fc2
000001e0: 1f23 77c1 a1ca 9ac2 fb08 bcc1 8213 b0c1
000001f0: 60ae 5ec2 9884 21c2 78ef 50c1 be78 edc0
00000200: f3a8 1bc1 2b2a 77c2 7e3f d9c1 74a1 8fc1
00000210: 5de0 a4c1 01f7 4dc1 5ada d9c1 8cdc 07c1
00000220: 05b4 cbc1 6cfa aec1 9576 1ec2 5333 00c2
00000230: 9130 3fc1 2266 8fc2 5590 ccc1 70a5 30c1
00000240: 24c5 76c1 3ba2 42c1 7520 82c2 9164 82c1
00000250: 295d 5dc2 6bb4 54c1 456c e6c0 7398 55c1
00000260: ca24 6cc1 c90c 24c2 5c9d 42c2 4a70 39c1
00000270: 2e3d 9ac1 8244 5fc1 a21a 14c1 af9a 55c1
00000280: ceaa 99c1 2fb0 c0c1 310e 3cc1 9ad3 d6c2
00000290: 84e9 9dc2 34ed 64c2 6291 d3c1 9534 afc2
000002a0: f3d0 dac0 5fbf a7c1 883d 64c2 3ebe 56c1
000002b0: da37 ddc1 4d59 32c1 c79a 95c1 0707 33c2
000002c0: 5bc0 d4c1 1976 74c1 2e69 28c2 4200 dfc1
000002d0: 3e9d 84c1 07e0 6ec2 eaf0 8ac0 058d 48c1
000002e0: c4fb ddc0 2e28 54c2 a0b4 77c2 a892 39c2
000002f0: 7c15 3dc1 4ac1 98c1 4ec5 28c2 750f 87c0
00000300: 3b70 1fc1 5098 bcc1 fd9f c0c2 6fe9 b7c1
00000310: 698d 64c1 0e92 4cc2 7076 4dc1 cce2 cec0
00000320: da9e 17c1 fdf2 0ac2 45c7 a7c1 5aa4 23c2
00000330: 9401 1dc2 4f2e eec0 d5d7 a7c1 fa50 d2c1
00000340: cfad b9c0 09bf a3c2 feda 50c2 ca12 5fc2
00000350: d18c 37c1 693a 8dc1 66c9 c8c1 6972 d4c0
00000360: 13af 87c0 5e19 98c1 3cc2 16c2 dc5d e0c1
00000370: 35c7 51c2 44ee 6dc2 c5a7 0cc2 d768 dec0
00000380: 9e8b ccc1 9134 a1c2 e0b4 3fc2 5ca0 88c1
00000390: f18e bdc1 573b 0ac2 0b7e 22c1 7e02 aec0
000003a0: 5ce3 01c1 13d3 8bc2 4b0e 6fc2 c409 89c2
000003b0: 2f48 4cc1 5d77 93c1 84f0 c4c1 6853 96c0
000003c0: 8f70 00c2 dbd5 b2c1 9410 9dc2 3d88 d6c1
000003d0: 3077 1dc2 92b8 8dc1 7b5c 04c2 20b1 41c0
000003e0: 5a41 6ac0 c34d 31c2 acb7 43c2 6b6a dec1
000003f0: 7084 66c1 a16d cbc1 5138 eac0 5f8c 27c1
-10.253126 -82.99848 -53.05283 -22.034136 -11.4031925 -18.66599 -24.613985 -5.311796
-6.2674885 -44.12247 -56.98674 -56.886993 -8.83625 -21.889303 -12.596557 -9.118505
-9.51778 -25.341143 -18.543264 -14.909272 -45.920998 -62.74005 -26.84985 -84.733284
-13.989639 -37.967808 -18.959354 -12.510861 -36.734478 -14.211654 -27.499458 -58.39299
-15.244184 -20.347605 -27.789118 -40.01063 -13.358471 -66.571526 -19.666197 -27.260965
-14.563858 -76.71678 -18.902727 -12.753288 -15.189291 -78.326096 -35.047077 -77.28793
-11.051274 -16.62013 -26.942633 -68.33085 -17.999243 -85.55092 -17.42231 -62.324207
-26.718071 -37.96505 -44.4501 -22.28331 -15.007197 -11.144447 -57.487583 -6.70127
-31.699324 -17.204317 -23.261473 -63.368355 -30.362019 -80.93152 -28.714092 -63.14381
-10.153404 -9.768048 -87.931206 -18.936893 -54.431656 -87.6276 -53.044743 -10.360532
-44.71265 -10.746924 -83.11922 -31.496513 -56.6762 -26.745943 -40.403656 -9.587946
-9.11395 -70.12342 -82.370964 -12.722598 -37.40052 -17.204124 -10.176458 -7.6954727
-14.012462 -16.457203 -57.702717 -14.518893 -55.31381 -12.084912 -14.89623 -9.786872
-25.277796 -13.289883 -43.30374 -15.46033 -49.05172 -16.240032 -6.7184453 -11.873409
-5.8759756 -22.647404 -17.511166 -71.409645 -15.934154 -64.49892 -14.200499 -59.922844
-15.4460745 -77.39576 -23.504385 -22.009525 -55.670288 -40.379486 -13.058464 -7.420989
-9.728747 -61.79118 -27.156002 -17.953835 -20.609552 -12.872804 -27.231617 -8.491344
-25.4629 -21.872276 -39.615803 -32.05012 -11.949357 -71.69948 -25.570475 -11.04039
-15.42313 -12.164607 -65.06339 -16.299105 -55.340977 -13.294047 -7.2007165 -13.349719
-14.758982 -41.012486 -48.65367 -11.589914 -19.279873 -13.954226 -9.256502 -13.350265
-19.2084 -24.086027 -11.753465 -107.413284 -78.956085 -57.231644 -26.445988 -87.6027
-6.8380065 -20.968443 -57.06009 -13.421446 -27.652271 -11.146802 -18.700575 -44.756863
-26.593924 -15.278832 -42.102715 -27.875126 -16.576778 -59.718777 -4.3419085 -12.534429
-6.936983 -53.039238 -61.92639 -46.39322 -11.817745 -19.09438 -42.19268 -4.220637
-9.9649 -23.574371 -96.31248 -22.988981 -14.284524 -51.14263 -12.841415 -6.465185
-9.476282 -34.737293 -20.9723 -40.9105 -39.25154 -7.443153 -20.980387 -26.28954
-5.802467 -81.873116 -52.21386 -55.76835 -11.471879 -17.65352 -25.09834 -6.638966
-4.2401214 -19.012386 -37.689682 -28.04583 -52.44454 -59.48268 -35.163837 -6.950298
-25.568172 -80.60267 -47.926636 -17.0783 -23.694796 -34.55795 -10.155772 -5.437804
-8.118008 -69.912254 -59.763958 -68.51907 -12.767623 -18.433283 -24.61744 -4.6976814
-32.10992 -22.354422 -78.53238 -26.816523 -39.366394 -17.715122 -33.090313 -3.0264359
-3.6602387 -44.32594 -48.929367 -27.801962 -14.407333 -25.42853 -7.3193746 -10.47177

l3.bias f4 [7801]
00000000: 5eaa 0cc1 f5ad 41c1 06dd 44c1 8844 45c1
00000010: 8825 3fc0 baf5 dbc0 8780 26c1 59bd efc0
00000020: 65ff 6540 6264 4dc1 ef08 b9c0 81b6 32c1
00000030: 2703 85c1 af03 62c1 7819 e9c1 0a87 afc0
00000040: 1f64 fec0 27fa 06c1 037a 63c1 7cb0 8cc1
00000050: f32f c9c1 c08b 64c1 4729 94c1 4259 99c0
00000060: f9a6 e9c0 8b04 b4c1 67b2 1ac1 5d3e 2bc1
00000070: 71fb c5c0 35d4 97c0 7cfd 8cc0 dd7b 8dc1
00000080: 78c5 80c0 2650 e7c1 ad46 94c1 e609 83c1
00000090: 0f9c 4fc1 b632 89c1 419e 16c1 9fce 7dc1
000000a0: 2c34 fac0 c777 a3c0 9d6d cdbf 5f4c 63c1
000000b0: 4456 6dc0 ecd8 7bc0 c658 b2c1 74f3 46c1
000000c0: 236c 6cc1 a989 40c1 d88e 56c0 458d e9c1
000000d0: 799f 6bc1 0765 b1c0 be5a abc0 b61f 7ec0
000000e0: 3e57 8ec0 00d3 69c1 dadb 08c1 4314 80c1
000000f0: ee12 4ac1 9230 36c1 6a0d c3bf 9454 0cc1
00000100: 423c 5ec0 606d aec1 386a 39c1 1c5c 38c1
00000110: b00c 48c1 d3b1 a1c0 5fc9 3f40 49f7 2bc1
00000120: 8013 0cc1 0e44 7dc1 e985 a5c0 1185 2dc1
00000130: 493c 4ac1 70c3 0ec1 fca8 4ac1 87c4 d3c0
00000140: 30e8 b9c1 87a0 18c1 bb67 2cc0 9f25 afc1
00000150: 54f1 15c1 e261 00c1 4ccf 79c1 5edb 15c1
00000160: 665a 83c1 657d 43c1 69f7 82c1 f519 50c1
00000170: 6fcf 05c1 fa30 68c1 7d9f 17c1 6406 56c1
00000180: 2df9 4ac1 e4f1 81c1 3474 44c1 3fc1 e9c1
00000190: 4722 43c1 85a1 2fbf 145a 8ac1 45b8 61c1
000001a0: 771a 58c1 f410 0ec0 f898 61c1 9ad6 40c0
000001b0: c6dc 91c0 b6e8 f3c0 e8b6 0bc0 a0e2 37c1
000001c0: 5b4b 6dc1 606f 33c0 9fcc a9c1 06a8 57c1
000001d0: 61fd c5c0 e508 b6c0 14cd 12c1 1933 a8c0
000001e0: 7739 bec1 3d92 4cc1 6d17 a2c1 767e 95c1
000001f0: e9e6 99c1 2d10 3bc1 d14b 58c1 82dc 5ac1
00000200: 04fb 81c1 a56e 8a3f 2c70 0ec1 30f8 9440
00000210: c213 b3c1 5198 b6c1 6a3b cac1 0056 a8c0
00000220: 0932 27c1 f94c 56c1 ba59 a0c1 4f2e 95c1
00000230: 9ae7 a3c1 9c4b f1c0 0b1b 9fc0 1acb 51c1
00000240: 0e51 e4c1 f990 b6c1 9993 89c1 4fc6 64c1
00000250: 2712 e8c1 6b92 b5c1 139b 11c1 41a1 21c1
00000260: 9129 c4c0 4b0c d4c1 4e77 2fc1 452f 29c1
00000270: eceb 8fc1 3b1d aec1 1816 bbc0 ecc1 3dc1
00000280: ef54 a2c1 ff99 11c1 3ada b9c0 a3ab 2ec0
00000290: 441f 75c1 9b54 4ac1 4cfc 03c1 00aa 61c1
000002a0: f1e5 d6c1 28e2 c4bf d31d 32c1 c8a5 d8c0
000002b0: cfba 6740 1f3d 72bf 1dbe c1be 92be b5c1
000002c0: 7935 a5bf fdb5 b73e b021 d3c1 7095 f7c0
000002d0: c8a2 41c1 70fb 84c1 0f80 56c1 34cd 0cc0
000002e0: c154 16c1 35d4 a3c0 a2e6 bbc1 29ee c7c1
000002f0: 950d 8fc1 5a9e a3c1 f1be 48c1 af55 0cc1
00000300: 6281 bfc1 86ee b7c1 2761 4cc1 4ec5 83c1
00000310: 9331 9bc1 a992 86c1 be0b 74c1 f42d 88c1
00000320: 3d68 47c1 4cd8 a4c1 a298 40c1 e64e afc0
00000330: 5190 93c1 4374 94c1 5789 f0c1 0f63 4dc1
00000340: ca6a a1c1 ca67 4ec1 8700 96c1 23ae 49c1
00000350: 7ccd 6bc1 cb89 e9c0 1c3a abc1 b643 91c1
00000360: 5c42 81c1 f680 fec0 914c 9ec1 72c2 07be
00000370: 26dc 95bf 069d 13c1 3238 3dc1 1b1d fa3e
00000380: dd9b 0ec1 95da 0c40 0e05 aac1 3e5b 83c1
00000390: c16a 91c1 d8c0 70c1 948a 82c1 a09c 59c1
000003a0: dd08 0cc1 852a 84c1 4458 7ec1 6d7f 41c1
000003b0: 89aa 03c1 0168 0b40 885c b0c1 b51a 3cc1
000003c0: 6a30 03c1 5ba1 84c1 2850 e7c1 c19e 68c1
000003d0: 9b02 41c1 44a6 b1c0 7896 0cc1 900f a6bf
000003e0: 29a6 ebc0 3402 c1c1 323d bec0 969e 86c1
000003f0: 531e 08c1 6433 ddc0 4286 03c1 4eb2 acc1
-8.791594 -12.10497 -12.303961 -12.329231 -2.9866657 -6.873746 -10.406379 -7.4918637
3.593713 -12.8370075 -5.7823405 -11.169557 -16.62654 -14.125899 -29.137436 -5.4852343
-7.949722 -8.436072 -14.217288 -17.586174 -25.148413 -14.284119 -18.520155 -4.7921457
-7.3016324 -22.502218 -9.668555 -10.702725 -6.1869435 -4.744654 -4.405943 -17.68548
-4.024105 -28.914135 -18.53451 -16.379833 -12.9756 -17.149761 -9.413636 -15.862945
-7.8188686 -5.1083713 -1.6049076 -14.206145 -3.7083902 -3.9351149 -22.293346 -12.434437
-14.776401 -12.033608 -3.3524685 -29.19398 -14.726434 -5.5435824 -5.354827 -3.9706855
-4.4481497 -14.614014 -8.553675 -16.009893 -12.6296215 -11.386858 -1.5238469 -8.770649
-3.4724278 -21.803406 -11.588432 -11.522488 -12.503098 -5.052957 2.9966657 -10.747872
-8.754761 -15.829115 -5.1725965 -10.844987 -12.639718 -8.922714 -12.666256 -6.61774
-23.238373 -9.539191 -2.6938312 -21.89337 -9.371418 -8.023897 -15.61311 -9.366056
-16.41914 -12.218114 -16.370806 -13.006337 -8.363143 -14.511957 -9.476438 -13.37656
-12.685834 -16.24311 -12.27837 -29.219358 -12.1958685 -0.68605834 -17.293983 -14.107488
-13.506461 -2.2197847 -14.099846 -3.0130982 -4.5582 -7.622157 -2.1830387 -11.492828
-14.830897 -2.8036728 -21.224913 -13.478521 -6.18718 -5.6885858 -9.175068 -5.2562375
-23.778059 -12.785703 -20.261438 -18.686749 -19.23775 -11.691449 -13.51851 -13.678835
-16.247566 1.0815016 -8.902386 4.6552963 -22.384647 -22.824373 -25.27901 -5.260498
-10.449716 -13.393792 -20.043812 -18.647612 -20.488087 -7.5404797 -4.972051 -13.112085
-28.539577 -22.820787 -17.19707 -14.298415 -29.008863 -22.696493 -9.10036 -10.101869
-6.130074 -26.506002 -10.966627 -10.57404 -17.990196 -21.764273 -5.846447 -11.859844
-20.291471 -9.100097 -5.807889 -2.7292259 -15.320133 -12.645656 -8.249096 -14.104004
-26.862276 -1.5381517 -11.132281 -6.770237 3.620777 -0.94624513 -0.37840357 -22.718052
-1.2906944 0.35881034 -26.391449 -7.736992 -12.1022415 -16.622772 -13.406264 -2.2000246
-9.395692 -5.119654 -23.487614 -24.99129 -17.881632 -20.45232 -12.546617 -8.770919
-23.938175 -22.991467 -12.773719 -16.47134 -19.399206 -16.821611 -15.252867 -17.022438
-12.462949 -20.605614 -12.037264 -5.478381 -18.445467 -18.556768 -30.06706 -12.836684
-20.177143 -12.900339 -18.750257 -12.605014 -14.737667 -7.2980704 -21.403374 -18.158062
-16.157402 -7.9532423 -19.787386 -0.13257769 -1.1707809 -9.225836 -11.82622 0.4885033
-8.913053 2.2008412 -21.252468 -16.419552 -18.177126 -15.047081 -16.317665 -13.600739
-8.752164 -16.520761 -15.896549 -12.09361 -8.229135 2.178223 -22.045181 -11.75652
-8.19932 -16.578787 -28.914139 -14.538758 -12.063136 -5.551546 -8.786736 -1.2973499
-7.364033 -24.126076 -5.94497 -16.827435 -8.507403 -6.9125233 -8.220278 -21.587063
